weights/mnist_mlp_base.pt (torch, 205257 bytes, 4 tensors)

fc1.weight f4 [64, 784]
00000000: 55c0 963c 7a22 81bc 93df e2bb ee52 893c
00000010: 02b8 09bd cc75 af3c e5c1 f0bb 0cd8 943c
00000020: 8ab0 a23b 6e4b 8fbb b74b 223c dced e63a
00000030: f844 1c3e 8c3c 293e 3bce 113e 3f26 2f3d
00000040: 37a0 a93b 4a9a 15b9 98c1 ff3c 3717 363c
00000050: 2ee9 59bc acb3 b0bc 8128 c4bb 5c65 7cbc
00000060: 1782 3bbc 0124 e03a f368 ae3c f705 9f3c
00000070: 7200 0fbd fc5e b53c c077 233c 97c2 0a3d
00000080: 0861 1d3d 6078 07bc 6562 093e aefd 283e
00000090: 2674 313e e7d5 0b3e 3fa2 933e 0e97 cabc
000000a0: 2b81 23bd fb3e c9bd 76f3 61bb 339d 873e
000000b0: 78b2 253e 92d7 d53d e598 323e 47ea 893e
000000c0: 5343 413e 5b95 2a3e b95f 243e c4bc 3b3e
000000d0: 5cc2 9e3c 253c 0ebc 34b5 113d 9a85 ea3c
000000e0: 2530 dbba 5749 c3bc c266 873d 465c aabe
000000f0: 5377 abbe 05ac 853e 92d2 413e c7e3 9f3d
00000100: 6ee9 d13e 6293 193f 482f 2e3f 1e14 443f
00000110: 58fd 993e a32b 9e3e 78c6 533f 4421 1a3f
00000120: 7738 a43e ce52 b03e cd70 573e f1cb ed3c
00000130: efd4 9bbd 9c8e 80bd 19c5 0abe 8fa8 c2bd
00000140: 1be9 cd3d 919b fc3c 2557 0e3b d36c c7bb
00000150: 91d5 ab3c 4570 a9bc b72c 61bd 7c87 e1be
00000160: 3c50 b0be a19e 9a3e f894 2f3f ffbc ec3e
00000170: 4255 dc3c 6e1b 873e 3990 dc3d 1394 993d
00000180: 304b bcbd 616a 523d 939c 80bc 7811 bd3c
00000190: f43e 073a 1f15 34bc 4c57 ac3d ff63 a33d
000001a0: ffbb a3be e05a 6abe c735 3b3d c351 9cbd
000001b0: 0af2 66be 226b adbd 8a86 c53c ec89 da3c
000001c0: d4b5 0a3d 65a0 aabd e865 99bc 655a fdbe
000001d0: 9ceb 313e 67d3 cb3e cc11 013f 3980 693e
000001e0: e216 653e 7a24 873e f5bf 443e 8f29 0c3e
000001f0: 21b9 4e3e 657d 8f3d 546d fcbd 2de9 5dbe
00000200: 8a7b 80be 1019 cfbe 4078 7cbe a400 2abe
00000210: 58b2 70be 85c4 59be f7cb 18be 5e72 00be
00000220: b342 2cbe e3c0 1a3e 2819 22be 0d3a 48bd
00000230: f00f 86bc 6546 88bb 1941 733d e87f 93be
00000240: 30e4 b13e 6c96 fe3e fb75 c83e ecd2 c33d
00000250: 5b27 073f 40a1 cb3e b51e 133e c856 adbd
00000260: 56b7 93bd f9ec 5fbd 72ae d3bd b2a4 1bbe
00000270: fbd8 22bd f680 89be f62a 31be fbb2 6cbe
00000280: 59fb 18be 8f9e 72bd 5d24 bdbe 6af9 70be
00000290: def9 57be c7fa 28bd f045 90be c9bf 1bbd
000002a0: d327 e9bc 665e 44be 2e29 98bd 923e 373e
000002b0: 6d8c 373e 84d7 8a3e 4216 893e b8d7 423e
000002c0: 31a6 9d3e 7027 163e 2a85 26bd 4070 3c3c
000002d0: 732c 77bd 36a4 19be cdf3 25be 3622 e2bd
000002e0: bf9c 68bd f3ed cd3c a177 3fbe aa18 24be
000002f0: 3dd2 f2bd a23e 42be 5a90 83be f3ad 44be
00000300: 1c1e bdbe a066 acbe e408 4ebd a1b3 88be
00000310: ba8e 123d 9c8d 4bbe 8b95 4f3e b24f fb3d
00000320: b815 3f3e fef2 c53d 12e0 803e b768 603e
00000330: 9c90 c83d 834e dd3d 9a50 bdba ae24 593d
00000340: eae6 cd3d 8bcd 99bd 7924 bbbd e0ba b13c
00000350: 5837 65bd 3f6f 853d 9cd5 cfbd c449 3dbd
00000360: 09e3 9fbd 37b3 b9bd ef99 49be d298 8dbe
00000370: 154d ddbe 6568 a3be 92d8 17be 4971 bdbe
00000380: f253 b1bd a318 c63e 8eb4 063e f84c c3bc
00000390: 8dc1 873e 0483 8a3e 6566 213e ae83 24bb
000003a0: d740 8d3d f3b9 063d 8c95 1f3e 5d22 203e
000003b0: ce1d 5dbd 10be 2bbe 6f61 e0bd 28d2 0abe
000003c0: 9f6a 16be c27e 0abd a034 a3bc 0c27 c5bd
000003d0: 58fd b8bd 4a5c e4bc c870 60be 21da ecbd
000003e0: 03b4 bcbe 397c e1be 575f b3be db44 13be
000003f0: b9d5 4a3e 5323 8e3e 5b99 1bbe 7993 38be
0.018402258 -0.01576351 -0.006923625 0.016763177 -0.03362275 0.021418475 -0.007347333 0.018169425
0.0049648928 -0.0043730056 0.009905747 0.0017618495 0.15260684 0.16527003 0.14238827 0.042761084
0.00517657 -0.00014267224 0.031220242 0.011113933 -0.013300223 -0.02157005 -0.0059862738 -0.015405025
-0.01144459 0.0017100574 0.021290278 0.019412024 -0.034912534 0.022140019 0.009977281 0.03387698
0.038422614 -0.008268446 0.13416441 0.16503021 0.17329463 0.13655816 0.2883472 -0.024730232
-0.039918106 -0.09826466 -0.003447739 0.2648712 0.16181362 0.104415074 0.17441137 0.26936552
0.18873338 0.16658537 0.1605214 0.18333727 0.019379787 -0.008681332 0.0355732 0.02862816
-0.0016722722 -0.023838682 0.06611396 -0.33273524 -0.33489475 0.26107803 0.18927982 0.07807117
0.40998405 0.59990513 0.68040895 0.76593196 0.30076098 0.30892667 0.82724714 0.6020701
0.3207433 0.34438175 0.21039124 0.02902791 -0.07608973 -0.062772006 -0.1355175 -0.09504806
0.10054227 0.030835899 0.0021719423 -0.006085971 0.02097586 -0.020683417 -0.054974284 -0.4404868
-0.34436214 0.3019915 0.68586683 0.46237943 0.026896123 0.26388115 0.10769696 0.07498946
-0.091940284 0.051370982 -0.01569966 0.023079619 0.0005159222 -0.010991364 0.08415088 0.07978057
-0.31979367 -0.22886229 0.045705583 -0.07632782 -0.22553268 -0.084676996 0.024112005 0.026677094
0.03386481 -0.08331374 -0.01872535 -0.49483028 0.17375034 0.39809725 0.5041778 0.2280282
0.2237201 0.26395017 0.19213851 0.13687728 0.20187809 0.07006339 -0.1232554 -0.21670981
-0.25094253 -0.4044881 -0.24655247 -0.16601807 -0.23505533 -0.21266373 -0.14921556 -0.12543628
-0.16822319 0.15112643 -0.15829909 -0.048883487 -0.016365021 -0.0041587823 0.059388254 -0.28808522
0.34744406 0.49724138 0.39152512 0.095617145 0.52794427 0.3977146 0.14367183 -0.08463818
-0.07212703 -0.054669354 -0.10336007 -0.15199545 -0.03975771 -0.26856202 -0.17301545 -0.2311515
-0.14939632 -0.059233245 -0.36941805 -0.23532644 -0.2109141 -0.041254785 -0.28178358 -0.038024697
-0.028461372 -0.19176635 -0.074297294 0.17894962 0.17924662 0.2711755 0.26774794 0.19027603
0.30790856 0.14663482 -0.04065434 0.011501372 -0.060345124 -0.15004048 -0.16206284 -0.110416815
-0.05679011 0.025137877 -0.18697979 -0.16025034 -0.11856506 -0.18969205 -0.2569607 -0.19206981
-0.36937034 -0.33672047 -0.050301448 -0.26699546 0.035780646 -0.19878238 0.2027189 0.1227106
0.18660629 0.09665488 0.25170952 0.21914946 0.09793207 0.108059905 -0.0014443577 0.053013496
0.10053809 -0.07509907 -0.09137816 0.021695554 -0.055960983 0.06515359 -0.10148165 -0.046212927
-0.078069754 -0.09067386 -0.19687627 -0.27655655 -0.4322287 -0.31915584 -0.14828709 -0.37000492
-0.086585894 0.3869067 0.13154814 -0.023840412 0.26514855 0.27053082 0.15761717 -0.0025102901
0.06897133 0.03289218 0.15584391 0.15638109 -0.053983502 -0.16771722 -0.10956084 -0.13556731
-0.1468911 -0.033812292 -0.019922554 -0.09626588 -0.090326965 -0.027876038 -0.21918023 -0.11565042
-0.36856088 -0.44040087 -0.35033676 -0.14381735 0.19808091 0.27761325 -0.15195219 -0.18025006

fc1.bias f4 [64]
00000000: bc50 6c3e f5a1 003e d274 edbd ae93 e63d
00000010: ceb1 c13e 3341 5e3d 92b5 c23d b5c9 92bd
00000020: 239c e53d 4786 d43b 3645 923c 1eac 3a3e
00000030: 01c9 7b3e 4517 3e3d daf6 b13e 46f5 c43d
00000040: 36f6 b53e e960 09be afd1 88bd 2212 e5bd
00000050: 1c96 8e3d 9207 5f3e 0f39 343e 553e bbbd
00000060: a9ac dd3d b099 18bd 2113 c3bc 9466 0cbe
00000070: 1f1c a13e 70ab 1d3d 418e 913c 74b7 1f3e
00000080: 2a88 3e3d ca49 7e3e 64a7 76bd 5202 b1bb
00000090: a614 403e 00cd 95bd 896b cd3d 263d cbbc
000000a0: d469 58be 8610 dd3b ca86 10be 8075 ed3d
000000b0: a043 52bc 4856 823d 1b4d 42bd e544 3cbd
000000c0: 8178 3dbc 984d d63c 861a 843d 33b7 423e
000000d0: 06c6 56be 792e b53d 0531 3e3b ca67 873d
000000e0: a6c1 58be 1951 fbbd b12d 963e 6361 e53d
000000f0: 6087 1fbc c8a9 58bc 0f01 453e 186d 0a3d
0.23077673 0.12561782 -0.11594547 0.112586364 0.37830967 0.054261398 0.09507288 -0.07167379
0.11211421 0.0064857337 0.017855268 0.1822972 0.24588396 0.04640891 0.34758645 0.09617095
0.35539407 -0.13415875 -0.06680619 -0.11185099 0.06962225 0.21780232 0.17599891 -0.09142748
0.10823948 -0.037255943 -0.023812832 -0.13711005 0.31466767 0.038493574 0.017768027 0.15597326
0.046516575 0.24832836 -0.06021823 -0.005401888 0.18757877 -0.07314491 0.10030276 -0.024809431
-0.2113412 0.0067463545 -0.14113918 0.11594677 -0.012833506 0.06364113 -0.047436815 -0.04596414
-0.011564375 0.026160046 0.064503714 0.19015197 -0.20973977 0.088467546 0.0029020917 0.06611593
-0.21167621 -0.122713275 0.29331735 0.11200216 -0.009736866 -0.013224073 0.19238685 0.033795446

fc2.weight f4 [10, 64]
00000000: 836f 13bf bdee 573e 1d21 e63e fa62 68bf
00000010: bc7a e9bd dae6 0b3e 017c c2bd d603 d33d
00000020: 8319 7d3e 8aaa 3f3e 3f5f 773d e3e2 153e
00000030: 8326 4bbf 7c8a 9fbf 5341 c23d f265 8f3e
00000040: ae32 59be 851f 1e3e 8899 18bf 0b87 1e3e
00000050: e2b2 343e 103c b0be 7dd2 b6be 2a38 5fbd
00000060: aad4 3abe 8f3d 8bbd 3cfc 9f3e 88bc e4bd
00000070: 27f5 ae3d 76d1 5ebf b5eb d33d d6f6 0d3e
00000080: 0505 c83d 3405 ae3e 44c1 bf3e 599f 583e
00000090: 7d8d 3b3d 1674 c73e 260c 703e 736c a3bd
000000a0: ba52 2cbf a7ce 5cbf dcda 8cbf 49d6 50bd
000000b0: 550f a5be fac3 893e 529b 03bf dfbc e9be
000000c0: 5a55 29bd a36d 8e3d 49e1 5bbf f6dd 333e
000000d0: ff0f 4d3e 17e8 a7bf e066 a63d bd3f b23e
000000e0: a1af 97bc 48b7 15bf d86e c8be ff28 b53b
000000f0: b479 f5bd dd15 9c3d 7f45 513c 9a19 673e
00000100: 51c3 ed3e 0b78 833e 11c9 8d3e 9bd8 803e
00000110: dffb 4fbf eb37 8a3e 6f64 043f a5c3 c4be
00000120: 44ca 513e 1f92 863d 0ea1 c73d d6fc 5b3f
00000130: cd3e 83bf f242 633d aacf 873e 2a47 a4be
00000140: 819c 9d3d af22 65bf 6f9c 123f 2ef1 4abe
00000150: 1099 aebe 6f9d d7bd f04a 76be ef46 35be
00000160: 3ad1 e23e a7f0 b3bd 71a1 c3be 0617 9c3e
00000170: dfd8 eebd 47b0 873e 9ecb 363f 062a bf3d
00000180: 4641 dbbc da21 18bf b617 adbe f9c2 a5be
00000190: d22f 07bf de62 94bf faef 49bf 9f07 66bd
000001a0: 38ba 6fbd a74c 7f3e 1fd2 d7bc 9dde 39bf
000001b0: ec5f ec3a b024 95bd 94c7 c53d 2426 0cbf
000001c0: 2083 d73d d2e2 cfbd 350b be3e 6d25 3e3e
000001d0: 6adf 543e 50e5 d1bd b62a 033e e38a b03e
000001e0: 96ed 04be 0501 533e 31de 053d 1757 143f
000001f0: c9b2 84bd a2ab 10bf fbc0 ef3d d103 193e
00000200: 1bae a83e 08db 85bd 6a2e 963d 5fe3 5e3f
00000210: 6fe5 793e 09f8 493e cca3 37be 72b2 1abe
00000220: f3f1 643e af72 273e 525e 81bd 16f3 64be
00000230: 1d4a a93d ad82 1abc 66d9 033e e6cd c0be
00000240: 3163 91bf e117 883d 92a7 a7bf acf3 ae3d
00000250: 56e4 04be ac55 093f a78c 263e 84ba 86be
00000260: c1cf b43e 2370 86be 8d9c 753e db34 1a3e
00000270: 52a9 21bf fcd7 8a3e 98cd 14bc 6148 d03d
00000280: 067b b33d 245a f13e 6399 7f3e 8388 1bbf
00000290: 1861 abbe 2248 403e 1035 1dbf 3d6f fd3c
000002a0: 9f11 233f 8e31 c4be 569e 45be ceee d3be
000002b0: fe7d c23d 1a9e 9b3d bdf7 23bf 86c3 823e
000002c0: 992a d03c ed2f fb3e 5d67 48be 06ca b4be
000002d0: 2630 dfbe 227a 64bf e310 39be 39fe bf3e
000002e0: b27d 493e df25 95bc cc2c d0be d4b1 0e3e
000002f0: b82f 5bbd f01f 9ebd ef2d 0e3f 9e67 90be
00000300: 4673 6ebf 2708 7bbd 0af3 883e 6eab eabe
00000310: bf17 37bf 9210 22be 50e8 7fbf a452 d93d
00000320: 22e3 b4bd a107 8cbe c350 b93d 6c7b f53d
00000330: 3ed4 4a3e b444 3e3e 468a 60bf 86a7 d7be
00000340: 2f84 8abe acf4 3a3e 9ad4 3abf 5820 aabe
00000350: 1e12 95be 927b 6ebe 01a3 1e3e 4148 0e3d
00000360: ec24 b1be 4859 19be e009 713c a3ad 3d3d
00000370: 7c7b 4cbf a6f4 993d 7fd9 cc3d ec17 44be
00000380: 00c4 4d3e 027f ce3c 2685 d23d d4ba 933e
00000390: 893c 873e efd5 c2bd b64f 11bf 3123 683d
000003a0: 3e09 ff3e 7f87 c63e 40a1 cb3e 95ad 8b3e
000003b0: 49b5 f0bc 73fe 243e 48e3 383e 9930 b43d
000003c0: c769 903b bdd8 053f 43e9 be3e 7c35 51bf
000003d0: f259 51be 5ab0 f93e 1dab 943e be1d 49bd
000003e0: f513 9f3d 779f 993e ebb1 15bd 0a91 afbc
000003f0: f20c 473c f4b1 a1bd 5bfc 6dbe 854f e53e
-0.5759203 0.21087165 0.44947138 -0.90776026 -0.11400363 0.13662282 -0.09496308 0.10303466
0.24716763 0.18717399 0.060393568 0.14637332 -0.7935564 -1.2464137 0.09485116 0.28007466
-0.21210739 0.15441711 -0.5960927 0.15481202 0.17646363 -0.34420824 -0.35707465 -0.05449692
-0.18245187 -0.06798851 0.31247127 -0.11168772 0.08542853 -0.8703836 0.10347692 0.13863692
0.097665824 0.33988345 0.37452137 0.21154536 0.04578923 0.38955754 0.23442134 -0.079796694
-0.6731373 -0.86252826 -1.100429 -0.05098561 -0.3223826 0.2690733 -0.51408875 -0.4565191
-0.041341163 0.06954505 -0.8589063 0.1756514 0.20025633 -1.3117703 0.081250906 0.34814253
-0.018516364 -0.5848279 -0.39147067 0.0055285688 -0.11986104 0.076213576 0.012772917 0.2256836
0.46438077 0.25677523 0.27692464 0.25165257 -0.812437 0.26995787 0.5171575 -0.38430515
0.20487314 0.06570839 0.097475156 0.8593267 -1.025354 0.055483766 0.26525623 -0.32085544
0.076958664 -0.8950605 0.5726995 -0.19818565 -0.34101152 -0.10528075 -0.24052024 -0.1770284
0.44300252 -0.08786135 -0.38209108 0.30486315 -0.11662459 0.26501676 0.71404445 0.09334187
-0.026764523 -0.59426653 -0.33807153 -0.32375315 -0.52807343 -1.1592672 -0.788818 -0.05615961
-0.0585272 0.24931584 -0.02634531 -0.72605306 0.0018033958 -0.07282388 0.09657207 -0.547457
0.10523057 -0.101506844 0.37117925 0.18568964 0.2078835 -0.10248816 0.12809262 0.34480962
-0.12981257 0.20605858 0.0326826 0.5794539 -0.06479413 -0.5651189 0.1170673 0.14942862
0.32945332 -0.065359175 0.073330715 0.8706569 0.24403928 0.19723524 -0.17933577 -0.15107134
0.22357921 0.16352342 -0.06316818 -0.22358355 0.08266089 -0.00943057 0.128759 -0.37657088
-1.1358396 0.066451795 -1.3098013 0.085425705 -0.12977728 0.5364635 0.16264592 -0.26314175
0.35314754 -0.2625743 0.239855 0.15059225 -0.6314899 0.27117908 -0.0090822205 0.10170055
0.08763699 0.47139084 0.24960856 -0.60755175 -0.33472514 0.18777516 -0.6140909 0.030936832
0.6369876 -0.38319057 -0.19298682 -0.4139313 0.09496687 0.07598515 -0.64049894 0.25539798
0.025410937 0.49060002 -0.1957068 -0.35310382 -0.43591422 -0.8924886 -0.18072848 0.37498644
0.19676855 -0.018206535 -0.40659177 0.13935024 -0.053512305 -0.07720935 0.5553884 -0.28204054
-0.93144643 -0.06128707 0.26747924 -0.45833915 -0.7152061 -0.15826634 -0.99963856 0.106114656
-0.08832385 -0.2734957 0.09048607 0.119864315 0.19807526 0.18580896 -0.8771099 -0.42119998
-0.27053973 0.18257397 -0.72980654 -0.332278 -0.29115385 -0.23289326 0.15491869 0.034736875
-0.34598482 -0.14975464 0.014711827 0.04630817 -0.7987592 0.07517366 0.100024216 -0.1914975
0.200943 0.025207046 0.10279302 0.28853476 0.26413372 -0.09513461 -0.56762254 0.056674186
0.4981174 0.3877525 0.3977146 0.2728087 -0.029383318 0.1611269 0.18055451 0.08798332
0.004407141 0.5228384 0.3728734 -0.81722236 -0.20444468 0.48767358 0.290368 -0.04910063
0.077674784 0.30004475 -0.03654663 -0.021431465 0.0121490825 -0.0789527 -0.23240797 0.4478723

fc2.bias f4 [10]
00000000: 3f15 70be e6d5 eebd 00c9 d73b 0b39 84bd
00000010: 332a 393d 40a9 e43d 9795 993d bcc7 76bd
00000020: 7972 583e 4773 1b3d
-0.23445605 -0.11661892 0.0065852404 -0.064561926 0.04520626 0.111650944 0.07499235 -0.060249075
0.21137418 0.037951734
